xyz/backend/autoencoder_model.pth (torch, 11538 bytes, 12 tensors)

encoder.0.weight f4 [32, 7]
0.40011454 -0.20794816 -0.114553325 0.42311037 0.10505907 -0.32812032 -0.001919308 -0.10049208
0.12585153 -0.12678097 -0.0068086777 0.5249419 -0.29949984 0.120299615 0.0060731056 0.026756719
-0.38851753 0.3005668 -0.42761824 0.25277847 0.323879 0.04725155 0.2889688 0.12891176
-0.24939011 -0.09487903 0.28317285 0.51438814 0.49882752 -0.23721349 -0.22082962 0.35619265
0.197357 0.27528694 -0.18217042 0.08154744 0.32746452 -0.31805885 0.48675522 0.47878674
-0.05816131 -0.042476952 -0.21656722 -0.13006933 0.035121445 0.33370394 -0.103641614 -0.4775902
-0.31958812 0.30695468 0.059117366 0.3137758 -0.38390344 0.20715766 -0.5320427 0.4981512
0.13566794 -0.0386615 -0.1536666 0.2499736 0.18982492 -0.12868196 -0.19324094 0.41708773
-0.28677568 -0.1155003 -0.21128494 0.18937562 -0.17964451 -0.259908 0.21142758 0.167355
0.11861888 -0.17482248 -0.13574079 0.053574104 0.4972648 -0.04985109 -0.07843117 0.2596438
-0.032144316 0.32431567 -0.2261625 -0.41123256 0.4150827 0.1911402 -0.03451166 0.40740865
0.25130874 -0.27560553 -0.12936655 0.14004476 -0.17407815 0.033960745 -0.4691684 0.0011402841
-0.28249842 -0.31643495 0.36902416 -0.45355245 0.06348057 -0.45612955 0.09893423 -0.116972744
0.36989808 0.32559627 -0.15704943 -0.21410593 -0.38184938 -0.086063966 -0.40845323 -0.23115775
-0.36135745 -0.32814696 0.46036357 -0.44974375 0.08322094 -0.33149555 0.12206619 -0.13404718
0.21549702 0.21106459 -0.077182055 0.22094981 -0.40620416 -0.30838174 -0.25012144 0.070397496
0.4652286 -0.28716773 -0.013630052 0.1588039 -0.12528299 0.31851047 0.21234481 -0.059215777
-0.27774543 -0.37478557 -0.14259474 0.018440526 0.12740254 0.1405677 0.066086166 -0.22412702
0.03409835 0.33820266 0.30557942 0.006202531 0.13560067 -0.25567073 0.34887773 -0.047814433
-0.33118516 0.278628 0.22476365 -0.13367243 -0.25916916 -0.13091795 -0.23908146 0.3584384
0.33632007 0.29023105 -0.3379814 0.21028307 -0.25014582 -0.38951445 0.2847689 0.06830453
0.30127808 0.33063853 -0.0528604 0.11439777 0.008178991 0.11631376 0.4236661 0.11837683
-0.50173974 0.20741877 -0.27919173 -0.08136118 -0.31925538 0.46655062 0.54292023 -0.17103434
-0.3996871 -0.020933282 -0.049955253 0.1381353 -0.071419165 -0.61165714 0.4937947 0.18104552
0.3449722 -0.17281242 0.20510562 0.15058425 -0.45968172 -0.040027868 -0.11595217 0.011954156
0.38800296 -0.2663918 -0.17871144 0.14909872 -0.19356719 0.23013802 -0.16640311 0.4058864
0.18019387 0.46238276 0.26732555 0.09433108 0.34374136 -0.2614867 -0.16996953 0.11639691
0.2731891 -0.39565587 0.28123924 0.39647877 -0.42003322 0.17595066 0.24659124 -0.24806936
00000000: d0db cc3e 5df0 54be ef9a eabd eca1 d83e
00000010: 3629 d73d 63ff a7be 4a91 fbba cbce cdbd
00000020: 39df 003e dfd2 01be 541b dfbb 9862 063f
00000030: 0b58 99be a55f f63d e700 c73b e830 db3c
00000040: c5eb c6be e4e3 993e c7f0 dabe 2e6c 813e
00000050: 78d3 a53e d78a 413d b8f3 933e 7201 043e
00000060: 1f60 7fbe f04f c2bd 08fc 903e f1ae 033f
00000070: 5266 ff3e 18e8 72be 2921 62be e25e b63e
00000080: f417 4a3e 69f2 8c3e e28a 3abe 5802 a73d
00000090: 6ea9 a73e 9cd8 a2be fb37 f93e 8923 f53e
000000a0: 8e3a 6ebd 50fc 2dbd ccc3 5dbe e530 05be
000000b0: 81db 0f3d 3edb aa3e 0e42 d4bd b486 f4be
000000c0: 0ea1 a3be 2a29 9d3e 0d25 723d 39a7 a03e
000000d0: fe8e c4be 2321 543e f333 08bf ad0d ff3e
000000e0: 89ec 0a3e 855b 1ebd c75a 1dbe 14f9 7f3e
000000f0: 7761 423e 34c5 03be f4e0 45be 868c d53e
00000100: 43d4 92be 6c8b ecbd 145b 58be afeb 413e
00000110: bbf4 37be a912 85be 7980 583e 1c5f 2b3e
00000120: 75ee f23d aa04 33be a2ff 0abe 8570 5b3d
00000130: 7e99 fe3e a830 4cbd 85a0 a0bd 08f0 843e
00000140: c2a9 03bd b40c a63e 2497 67be 138d d2be
00000150: b885 d43e 42ba 433e 195c 0dbd de97 d03e
00000160: 8aab 803e 2b1c 8dbe aa78 04be e567 0f3e
00000170: 8b41 32be 6c1a 0b3d d736 f0be 9675 953a
00000180: a2a3 90be c303 a2be bcf0 bc3e 0738 e8be
00000190: 1a02 823d d089 e9be 089e ca3d 688f efbd
000001a0: 4863 bd3e 8eb4 a63e 91d1 20be 963e 5bbe
000001b0: c381 c3be 4e42 b0bd c820 d1be 9eb4 6cbe
000001c0: d803 b9be e102 a8be c6b4 eb3e d044 e6be
000001d0: bd6f aa3d c9b9 a9be d7fd f93d aa43 09be
000001e0: 40ab 5c3e 5121 583e a011 9ebd ab40 623e
000001f0: fef9 cfbe 36e4 9dbe eb0f 80be 902c 903d
00000200: 7132 ee3e a607 93be 9550 5fbc 7d9d 223e
00000210: 2f4a 00be ce13 a33e eb70 593e 3e8c 72bd
00000220: a634 8ebe e5e3 bfbe 5b04 12be 9610 973c
00000230: d075 023e fbf0 0f3e 2f58 873d 8e81 65be
00000240: b6aa 0b3d e628 ad3e e874 9c3e 9a3e cb3b
00000250: e7da 0a3e 46e7 82be 1aa0 b23e 11d9 43bd
00000260: 1a91 a9be 54a8 8e3e 7128 663e 6de1 08be
00000270: d2b1 84be 5b0f 06be c5d1 74be 3d85 b73e
00000280: 2532 ac3e 2a99 943e e60b adbe 7254 573e
00000290: 1d13 80be 706e c7be 3bcd 913e 3fe3 8b3d
000002a0: 1f41 9a3e 7449 a93e 2684 58bd 6149 ea3d
000002b0: 2d01 063c e935 ee3d c3ea d83e 8d6f f23d
000002c0: 0472 00bf 9665 543e 38f2 8ebe b1a0 a6bd
000002d0: 7175 a3be b9df ee3e d2fc 0a3f a023 2fbe
000002e0: caa3 ccbe 467c abbc e19d 4cbd 5773 0d3e
000002f0: 3644 92bd 9095 1cbf a9d2 fc3e ff63 393e
00000300: 32a0 b03e bdf5 30be 3507 523e c232 1a3e
00000310: 675b ebbe 43f4 23bd 5578 edbd 5ddb 433c
00000320: 53a8 c63e 8264 88be 2200 37be 56ad 183e
00000330: 7a36 46be 4da9 6b3e 9465 2abe 58d0 cf3e
00000340: be84 383e 6fbd ec3e e5de 883e a730 c13d
00000350: defe af3e 96e1 85be 7e0c 2ebe 8161 ee3d
00000360: 71df 8b3e 6893 cabe 97fe 8f3e 44ff ca3e
00000370: 980e d7be 692c 343e 6a82 7c3e e505 7ebe

encoder.0.bias f4 [32]
0.35505092 0.46429 -0.21049976 0.2652713 -0.07214173 0.3374709 -0.2999451 -0.10053843
0.17989312 0.18225121 0.081202194 -0.20944662 -0.20516323 0.377144 0.053203806 0.46340474
0.091420636 0.057071634 0.17166473 0.11291279 0.22352429 0.23942779 0.26173 0.4945052
-0.123339094 0.39720693 0.16787729 0.0057195267 -0.1046407 0.34486142 0.21142831 0.055014394
00000000: 3cc9 b53e 6bb7 ed3e 408d 57be a4d1 873e
00000010: 0bbf 93bd fcc8 ac3e 6792 99be 18e7 cdbd
00000020: e735 383e 10a0 3a3e 564d a63d 2d79 56be
00000030: 4f16 52be 0519 c13e 3cec 593d 6343 ed3e
00000040: be3a bb3d f2c3 693d e1c8 2f3e d23e e73d
00000050: 8de3 643e 8f2c 753e 7901 863e c92f fd3e
00000060: 3599 fcbd b55e cb3e 06e8 2b3e de6a bb3b
00000070: dd4d d6bd ad91 b03e aa80 583e c656 613d

encoder.3.weight f4 [16, 32]
-0.097122595 0.09732331 -0.025975918 0.19110183 -0.09417546 0.050959222 0.036515277 0.031999808
0.0750764 -0.19508412 0.11368025 0.19151902 -0.07884838 -0.07223203 -0.005488711 0.030728616
0.172751 0.06433952 0.03493102 0.25404182 0.101542845 0.058314145 -0.10227865 0.11391871
0.071655594 0.082474634 -0.07902502 0.39317733 0.21035676 0.014214703 0.13152176 0.32579666
-0.010423825 0.1399536 -0.17254075 -0.091000214 -0.0035376174 -0.052552022 0.06203875 0.22438915
0.06772467 0.16335061 0.089454785 0.37049997 0.06964241 0.35281116 0.30952176 0.24872895
0.26904306 0.08493375 0.11441491 0.1146632 -0.075429454 -0.1378786 -0.04502339 0.10579331
-0.05689658 0.11739057 0.16974415 -0.29325595 0.13629995 0.14782842 0.06026586 0.11569895
-0.2558805 -0.089848846 0.17189735 -0.015278014 -0.0035817134 0.02075921 0.21839431 -0.2806687
0.21789032 -0.05155498 -0.1713216 -0.15451142 -0.115251526 -0.14496616 -0.15947042 -0.17075616
0.041549176 0.056099232 0.042282846 -0.121942036 0.09928865 0.21777001 0.045456722 0.1402905
0.018583786 -0.12081952 -0.13302696 0.15933773 0.24058527 -0.09030306 -0.0198609 0.22479212
0.034634575 0.17059624 0.27204892 0.20761341 0.05696392 0.020385467 -0.1529019 0.04731191
0.008805409 -0.0865053 0.21489733 -0.15799156 0.1610509 0.08937116 0.03240227 -0.012477032
-0.09611842 -0.018649843 -0.21153645 0.12970981 0.13174829 0.097802915 0.09234705 -0.12839442
0.25271937 0.19142857 -0.046636924 0.18947424 0.0079812715 0.25007883 -0.0582965 -0.22853948
0.10789 -0.015085663 0.24368803 -0.020727918 0.11986577 0.17281525 0.050250247 -0.08127631
-0.10266367 -0.035266586 0.16937031 -0.096930206 -0.09794359 -0.063723244 0.0039185924 0.036577497
-0.22398113 -0.058264766 -0.1249908 -0.037746932 -0.05310742 0.12247538 0.030226313 0.09128948
0.035716217 -0.08698404 0.2541173 -0.030538658 -0.10453251 0.0074444753 0.09826852 -0.0149076115
0.19645229 0.06838031 0.15447244 0.019512013 0.14074542 0.03599009 -0.08355721 0.19354178
0.050667107 -0.0754683 0.121962965 0.018832715 -0.002788318 -0.022928061 0.19978526 0.16380736
0.1000469 -0.09784827 -0.16964513 0.033223804 0.009075641 0.12579495 0.11090188 -0.0024681988
0.32127193 0.29567835 0.14521526 -0.055969022 0.07837476 0.1600221 -0.0152941905 -0.1411993
-0.06665566 -0.040800054 0.35471958 -0.024736183 0.09545478 -0.0075411755 0.010586334 -0.31389555
0.19854802 0.059673607 0.057712607 -0.08862284 0.16024987 0.09690904 -0.14688878 0.26739445
-0.06851864 -0.026829246 0.00797746 0.1511812 0.11876991 0.006738444 0.26432735 0.24809301
0.06394342 -0.13197547 0.32660332 0.31756178 -0.15149955 -0.08421846 0.10354915 0.00820182
0.041623857 0.17178985 0.10858591 0.1152242 -0.07037772 0.18118942 -0.20038481 0.3673778
0.24539256 0.16562282 0.18269166 -0.19764045 0.065019615 -0.18196571 0.3015924 0.0030936832
0.097163856 -0.23949178 -0.25635907 0.06037371 0.15433167 0.09755282 0.10236384 0.0504296
0.05993432 0.05723884 0.15305156 -0.09635798 -0.024325466 0.059082557 0.10817703 -0.055407666
00000000: 36e8 c6bd 7251 c73d 73cb d4bc 33b0 433e
00000010: 10df c0bd 9eba 503d 0b91 153d 3b12 033d
00000020: a8c1 993d 22c4 47be 31d1 e83d 901d 443e
00000030: 427b a1bd 63ee 93bd a5da b3bb 94ba fb3c
00000040: a3e5 303e 70c4 833d d413 0f3d c511 823e
00000050: b2f5 cf3d d0da 6e3d 7877 d1bd 364e e93d
00000060: 2bc0 923d 76e8 a83d dfd7 a1bd 8a4e c93e
00000070: c367 573e c9e4 683c a4ad 063e d2ce a63e
00000080: b1c8 2abc ff4f 0f3e 86ae 30be 525e babd
00000090: 5fd7 67bb ca40 57bd 581c 7e3d 45c6 653e
000000a0: 3bb3 8a3d 6245 273e 1234 b73d 2cb2 bd3e
000000b0: aea0 8e3d aaa3 b43e a379 9e3e cdb2 7e3e
000000c0: 03c0 893e bff1 ad3d 5d52 ea3d 8ad4 ea3d
000000d0: c27a 9abd 0c30 0dbe 726a 38bd 2aaa d83d
000000e0: 630c 69bd 786a f03d 69d1 2d3e a525 96be
000000f0: 3792 0b3e 5560 173e 56d9 763d 92f3 ec3d
00000100: c502 83be ac02 b8bd dc05 303e a350 7abc
00000110: 2ebb 6abb 380f aa3c c2a2 5f3e cfb3 8fbe
00000120: a41e 5f3e 512b 53bd ee6e 2fbe 3e38 1ebe
00000130: fe08 ecbd 0272 14be 374c 23be b4da 2ebe
00000140: 782f 2a3d 4fc8 653d c730 2d3d bfbc f9bd
00000150: d957 cb3d 1aff 5e3e d430 3a3d 50a8 0f3e
00000160: 063d 983c 3970 f7bd 3838 08be 6e29 233e
00000170: fc5b 763e d0f0 b8bd 53b3 a2bc e82f 663e
00000180: fcdc 0d3d c8b0 2e3e ff49 8b3e 9c98 543e
00000190: 0053 693d 6cff a63c 5192 1cbe 22ca 413d
000001a0: 9044 103c b129 b1bd 0c0e 5c3e 8ac8 21be
000001b0: 87ea 243e 3a08 b73d 3eb8 043d 776c 4cbc
000001c0: bcd9 c4bd 8ec7 98bc 039d 58be a6d2 043e
000001d0: 06e9 063e e54c c83d 7320 bd3d d479 03be
000001e0: 6f64 813e da05 443e 5c06 3fbd 8905 423e
000001f0: e1c3 023c 550a 803e 50c8 6ebd 4106 6abe
00000200: 6ff5 dc3d db29 77bc 5b89 793e 98cd a9bc
00000210: 2f7c f53d 7bf6 303e 34d3 4d3d 3274 a6bd
00000220: 5541 d2bd b273 10bd 696f 2d3e 5883 c6bd
00000230: a696 c8bd 5581 82bd 8967 803b 49d2 153d
00000240: 4f5b 65be 09a7 6ebd 2dfb ffbd 879c 1abd
00000250: 2b87 59bd 5fd4 fa3d 2c9d f73c fbf5 ba3d
00000260: 2b4b 123d b024 b2bd aa1b 823e 352c fabc
00000270: 2415 d6bd c9f0 f33b 0141 c93d 0e3f 74bc
00000280: ca2a 493e fa0a 8c3d 062e 1e3e a8d7 9f3c
00000290: 911f 103e 586a 133d 0b20 abbd d12f 463e
000002a0: 5088 4f3d 208f 9abd b8c7 f93d 1147 9a3c
000002b0: 37bc 36bb a1d3 bbbc 8294 4c3e 1ebd 273e
000002c0: 64e5 cc3d ac64 c8bd 74b7 2dbe af15 083d
000002d0: ffb1 143c 64d0 003e 8620 e33d 81c1 21bb
000002e0: c17d a43e 2763 973e 4fb3 143e c63f 65bd
000002f0: f282 a03d d5dc 233e 7c94 7abc 8d96 10be
00000300: c382 88bd f51d 27bd ce9d b53e 89a3 cabc
00000310: cc7d c33d f71b f7bb 4e72 2d3c ebb6 a0be
00000320: 2c50 4b3e 506c 743d 0e64 6c3d e47f b5bd
00000330: 8b18 243e 3f78 c63d 036a 16be ede7 883e
00000340: 8053 8cbd 02c9 dbbc e4b3 023c 3fcf 1a3e
00000350: a33d f33d 2ace dc3b ea55 873e 180c 7e3e
00000360: c5f4 823d 9424 07be 8d38 a73e 7597 a23e
00000370: b322 1bbe ba7a acbd 9411 d43d ed60 063c
00000380: c77d 2a3d aee9 2f3e 4a62 de3d aafa eb3d
00000390: 3222 90bd b889 393e ad31 4dbe f118 bc3e
000003a0: 3048 7b3e 0799 293e 8613 3b3e 4262 4abe
000003b0: 0129 853d 3855 3abe 526a 9a3e 64bf 4a3b
000003c0: d8fd c63d 553d 75be 7f41 83be 6c4a 773d
000003d0: 1f09 1e3e c6c9 c73d 22a4 d13d 458f 4e3d
000003e0: b17d 753d 4673 6a3d 8cb9 1c3e 5557 c5bd
000003f0: 3346 c7bc 8d00 723d eb8b dd3d 26f3 62bd

encoder.3.bias f4 [16]
0.22683024 0.22402142 -0.0036895163 -0.084282026 -0.06322729 -0.06651397 0.2805337 -0.05617616
0.0019293078 -0.047876563 0.1728212 -0.06787318 0.02163113 0.23697709 0.0310856 -0.08662302
00000000: 3046 683e df65 653e d0cb 71bb 0e9c acbd
00000010: 4f7d 81bd 7a38 88bd 1da2 8f3e f918 66bd
00000020: d4e0 fc3a 371a 44bd 0af8 303e 1801 8bbd
00000030: c433 b13c 1faa 723e 3aa7 fe3c 6967 b1bd

encoder.5.weight f4 [5, 16]
0.10098016 0.23729669 -0.005621999 -0.39169174 -0.15442254 -0.1340625 0.037192415 -0.24386999
-0.27563703 0.20158511 -0.21838146 -0.20179729 0.037432216 -0.23447108 -0.2476625 0.2515845
-0.009358935 0.34922493 -0.1877423 -0.12650377 -0.2750207 -0.0026308086 -0.40423802 0.021110013
0.18195987 -0.17198645 0.2028628 0.35746357 -0.18448316 -0.01779143 0.20458221 0.20113441
0.050276622 0.12623604 0.20138335 -0.20671426 0.0018610664 -0.23863344 0.38800755 -0.21274458
-0.13457686 -0.28497714 -0.07272395 0.011470374 -0.33881983 -0.03231797 0.30502987 -0.09204367
-0.39416623 0.07574291 -0.093190074 -0.20162661 0.013427109 0.0121714175 0.20848489 -0.14517549
-0.16563256 -0.43629062 0.3465675 -0.24753667 0.010017827 0.10648151 0.1699815 -0.030699862
-0.29115742 0.25230542 -0.18343467 0.109801516 0.11322905 0.1347113 0.030519282 0.1488647
-0.20945357 0.24455528 0.1982642 -0.18725103 0.15814821 -0.29509935 0.15227365 -0.097316176
00000000: b0ce ce3d e7fd 723e bf38 b8bb d28b c8be
00000010: f120 1ebe ae47 09be 1357 183d 0eb9 79be
00000020: 4c20 8dbe 546c 4e3e 649f 5fbe f3a3 4ebe
00000030: 8652 193d 3019 70be 3d9b 7dbe afcf 803e
00000040: 3856 19bc 9ccd b23e 843f 40be 348a 01be
00000050: 83cf 8cbe a569 2cbb 49f8 cebe e8ee ac3c
00000060: b053 3a3e 371d 30be 44bb 4f3e 7705 b73e
00000070: 27e9 3cbe 55bf 91bc 007e 513e 2ef6 4d3e
00000080: dcee 4d3d 0544 013e 7037 4e3e e7ac 53be
00000090: 07ef f33a 535c 74be eda8 c63e b7d9 59be
000000a0: 84ce 09be 86e8 91be 4bf0 94bd 3cee 3b3c
000000b0: cb79 adbe d95f 04bd e02c 9c3e 6481 bcbd
000000c0: 28d0 c9be 191f 9b3d 70da bebd 3577 4ebe
000000d0: 61fd 5b3c a06a 473c 107d 553e e2a8 14be
000000e0: 959b 29be 7c61 dfbe 4c71 b13e 417a 7dbe
000000f0: d021 243c fa12 da3d a10f 2e3e 477e fbbc
00000100: 9612 95be 2d2e 813e 4cd6 3bbe 9edf e03d
00000110: a2e4 e73d c2f1 093e 9303 fa3c fd6f 183e
00000120: ff7a 56be b36c 7a3e c505 4b3e bcbe 3fbe
00000130: 9bf1 213e 4317 97be a0ed 1b3e b44d c7bd

encoder.5.bias f4 [5]
-0.20376596 -0.05533183 0.20199387 -0.17890559 -0.36210042
00000000: 06a8 50be a1a3 62bd 7bd7 4e3e 0733 37be
00000010: 3a65 b9be

decoder.0.weight f4 [16, 5]
0.4489851 -0.018716536 -0.22845107 -0.30396566 -0.28097752 -0.30944404 -0.26711658 -0.04554776
-0.2712874 0.34286603 0.2282086 0.429754 -0.5146864 0.23544271 0.40981507 -0.41687855
0.5093478 0.29261827 0.31713024 -0.37030685 -0.03550298 0.43105856 -0.15452982 -0.25477237
-0.44869363 -0.13750623 0.47783142 -0.124191605 0.17105669 -0.1982264 0.28310817 0.45169464
0.09723606 -0.54152906 -0.48827565 -0.5561639 0.015179682 0.3542553 0.26967353 0.2795056
-0.42613193 -0.21561778 -0.058998253 -0.29767838 -0.4533483 -0.52898914 0.42020047 0.24281901
0.2913804 0.17199256 -0.25302058 -0.49050564 -0.17665862 0.10878842 -0.20255576 -0.08447769
-0.2467713 -0.21149795 -0.18188012 0.22499335 -0.3862955 -0.22847235 -0.5282736 0.13863693
-0.29701996 -0.50583667 -0.15397976 0.3061808 0.12265593 -0.583373 0.014889598 -0.55885524
0.33496392 -0.1276516 0.06316144 0.014355014 0.13889551 -0.361395 -0.42543408 -0.08076438
00000000: 60e1 e53e 6c53 99bc 14ef 69be 63a1 9bbe
00000010: 49dc 8fbe 736f 9ebe 81c3 88be 4a90 3abd
00000020: 2fe6 8abe 238c af3e 84af 693e b708 dc3e
00000030: 7dc2 03bf e517 713e 48d3 d13e 1b71 d5be
00000040: 9e64 023f 10d2 953e e55e a23e dc98 bdbe
00000050: 936b 11bd b5b3 dc3e 113d 1ebe 8671 82be
00000060: 2cbb e5be 6fce 0cbe 52a6 f43e 2b58 febd
00000070: 7c29 2f3e ddfb 4abe 8ef3 903e 8544 e73e
00000080: b323 c73d a6a1 0abf 44ff f9be c260 0ebf
00000090: 33b4 783c f360 b53e a612 8a3e 5c1b 8f3e
000000a0: f72d dabe e8ca 5cbe 27a8 71bd 4d69 98be
000000b0: 451d e8be d56b 07bf 8424 d73e 8ca5 783e
000000c0: d02f 953e d11e 303e ea8b 81be 8e23 fbbe
000000d0: ffe5 34be 77cc de3d c76a 4fbe a402 adbd
000000e0: 9eb1 7cbe eb92 58be c83e 3abe a864 663e
000000f0: 86c8 c5be a8f4 69be f03c 07bf d7f6 0d3e
00000100: 0013 98be 837e 01bf dfac 1dbe bbc3 9c3e
00000110: 0833 fb3d ef57 15bf 80f3 733c 2311 0fbf
00000120: 6480 ab3e 1ab7 02be c95a 813d 4b31 6b3c
00000130: a03a 0e3e c408 b9be 7fd2 d9be cc67 a5bd

decoder.0.bias f4 [16]
-0.082750775 -0.003450319 0.072756454 -0.05723637 -0.258435 -0.10444402 0.2287292 0.1239634
-0.3086994 0.03975315 -0.061835553 -0.054662216 0.20001684 0.005230778 0.40494192 -0.10325659
00000000: 3d79 a9bd bf1e 62bb 5601 953d af70 6abd
00000010: 9851 84be bfe6 d5bd fd37 6a3e 86e0 fd3d
00000020: d90d 9ebe 33d4 223d 4747 7dbd 7de5 5fbd
00000030: 37d1 4c3e f266 ab3b 8c54 cf3e 3178 d3bd

decoder.3.weight f4 [32, 16]
0.34635416 0.042366866 0.0055424226 -0.22538696 -0.20912585 -0.34599087 -0.078412056 -0.20841204
-0.20277226 -0.085806794 0.11844679 0.15295222 -0.23677114 0.08196648 0.19928616 0.20141472
-0.10594733 0.29362723 0.13552156 0.31428844 -0.11326761 -0.111277156 -0.016682483 -0.27849373
-0.065236665 0.061141707 -0.18281947 0.07107811 -0.016290944 -0.05439017 -0.062069785 0.13778226
0.11819351 0.17993273 0.25413105 -0.034207862 0.21498875 0.13042821 0.22743604 -0.0999103
-0.025348907 -0.16033125 0.11546005 -0.020490628 -0.036082517 -0.03817202 -0.0025519014 0.2868765
0.18397848 -0.057958018 0.07405508 -0.13144562 0.108507626 -0.031331882 0.22578748 0.35966802
-0.44186565 0.26479593 -0.44543535 -0.17115174 -0.4084989 -0.23723905 -0.057813875 -0.040890135
0.13653278 0.24501269 -0.17526904 -0.16606626 -0.18880999 -0.15772186 0.23493542 -0.34716544
-0.0056434134 -0.3584455 -0.02477683 0.0003514215 -0.061502732 -0.22159265 0.19819935 0.20941117
-0.032732293 -0.07173483 0.21247298 -0.07977642 -0.06773234 0.004806637 0.22195128 -0.14163518
-0.26314363 -0.11923241 0.06992196 0.10850704 0.06320015 0.00515707 -0.26453707 0.092396356
0.26652956 0.055704903 0.03537416 -0.011206289 0.3061023 0.28274992 0.16343628 -0.046811238
-0.11412775 0.2697007 -0.15376738 0.2809475 0.0018528493 0.091218755 -0.3082363 0.04043926
0.01590634 0.09022257 0.34781495 0.17201965 -0.13714384 0.08906241 -0.09626651 0.32125816
-0.17161742 0.18132408 -0.034325592 0.049559753 -0.1154161 -0.035314087 0.2803928 -0.13812089
-0.00519488 0.003990143 0.3691782 0.20814405 0.3135797 0.16279204 0.21401522 0.1313
0.004069222 0.20768028 -0.33389592 -0.19879393 -0.18419012 -0.1533712 -0.40077385 0.089102514
-0.13089108 0.2565352 -0.24895318 0.15646361 0.15418169 0.17701225 0.10340047 0.16487797
0.2039181 0.19654393 0.2306661 -0.14050324 0.0107682925 0.29582685 -0.07302587 0.050094076
-0.34218234 -0.09394561 0.032813676 0.28600243 -0.40377244 0.04706472 -0.20030013 -0.17237915
-0.010684631 0.3161324 -0.11503376 -0.049601454 -0.12298103 0.29599378 0.15108566 -0.025017003
0.25409716 0.29664877 0.0055979164 -0.049900133 -0.016019695 -0.38175264 0.19387285 -0.07756481
0.23161212 -0.02998217 0.060818817 0.008502231 0.15729521 0.07602327 0.07950927 -0.06052483
0.039348103 -0.044712033 -0.16081849 -0.0117304325 -0.20568112 0.08238139 0.33280075 0.14960217
0.12049054 -0.28822806 0.040848542 0.08617564 0.047265857 0.29787007 0.23381418 -0.39091718
0.24357717 -0.39722234 -0.12102292 0.056990866 0.29858688 -0.114403546 0.3175589 0.23730412
0.01978261 0.16710569 -0.037413463 -0.21948776 -0.19216393 0.22522867 -0.14268021 0.022077512
0.36009815 -0.16681868 -0.029698227 -0.14262871 0.20537584 -0.15943384 0.1826293 -0.1872924
0.048086755 -0.297042 -0.04594067 -0.18612185 -0.16989289 0.0859052 0.06835441 0.22298071
0.4622602 -0.1069389 0.1545126 -0.114778966 0.34261742 -0.11261257 -0.042631347 -0.22270459
0.09475348 -0.19281049 -0.12107194 0.31443146 0.2540548 -0.231646 0.040169764 0.22156753
00000000: 5555 b13e e188 2d3d 369d b53b d7cb 66be
00000010: 1625 56be b725 b1be 8096 a0bd f769 55be
00000020: 88a3 4fbe 79bb afbd 3b94 f23d 829f 1c3e
00000030: 2274 72be 0bde a73d ac11 4c3e a93f 4e3e
00000040: eafa d8bd 4f56 963e 2ac6 0a3e 6aea a03e
00000050: d9f8 e7bd 47e5 e3bd b4a9 88bc bb96 8ebe
00000060: cd9a 85bd ba6f 7a3d 0735 3bbe 6691 913d
00000070: 9674 85bc 3ac8 5ebd e33c 7ebd cb16 0d3e
00000080: 700f f23d 4940 383e 771d 823e 8b1d 0cbd
00000090: 0326 5c3e f98e 053e fee4 683e c59d ccbd
000000a0: 83a8 cfbc e02d 24be 5276 ec3d f6db a7bc
000000b0: 43cb 13bd 445a 1cbd cd3d 27bb 7ae1 923e
000000c0: db64 3c3e 6365 6dbd 31aa 973d ae99 06be
000000d0: 3f39 de3d dc55 00bd d534 673e 6826 b83e
000000e0: 373c e2be 5593 873e 1a10 e4be 6742 2fbe
000000f0: c526 d1be cbee 72be 3ece 6cbd 6a7c 27bd
00000100: 40cf 0b3e 9be4 7a3e ba79 33be 460d 2abe
00000110: 6857 41be d781 21be e992 703e abbf b1be
00000120: 62ec b8bb 2b86 b7be c7f8 cabc ff3e b839
00000130: 4aea 7bbd 2fe9 62be c5f4 4a3e e26f 563e
00000140: 4c12 06bd b6e9 92bd 8492 593e d261 a3bd
00000150: 41b7 8abd fe80 9d3b 3247 633e d008 11be
00000160: c3ba 86be 1f30 f4bd 3f33 8f3d f038 de3d
00000170: 156f 813d a3fc a83b 6771 87be 4d3a bd3d
00000180: 9076 883e d32a 643d 7fe4 103d 959a 37bc
00000190: 71b9 9c3e 99c4 903e d75b 273e 24bd 3fbd
000001a0: cfbb e9bd 3616 8a3e 3275 1dbe 5ad8 8f3e
000001b0: 4edb f23a e6d0 ba3d 26d1 9dbe a3a3 253d
000001c0: 034e 823c 9cc6 b83d cd14 b23e eb25 303e
000001d0: 6f6f 0cbe 5a66 b63d 6027 c5bd f37b a43e
000001e0: 7abc 2fbe 05ad 393e fe98 0cbd 2bff 4a3d
000001f0: 475f ecbd 81a5 10bd a58f 8f3e 906f 0dbe
00000200: d039 aabb bfbf 823b ed04 bd3e b723 553e
00000210: 858d a03e f5b2 263e ce26 5b3e 8273 063e
00000220: 1c57 853b 24aa 543e 68f4 aabe a390 4bbe
00000230: 569c 3cbe 570d 1dbe 3b32 cdbe 617b b63d
00000240: 5008 06be 9558 833e 95ed 7ebe ff37 203e
00000250: cee1 1d3e b342 353e a0c3 d33d c5d5 283e
00000260: e8cf 503e d042 493e bc33 6c3e 15e0 0fbe
00000270: 7e6d 303c 9e76 973e 968e 95bd 722f 4d3d
00000280: 8632 afbe 8e66 c0bd a267 063d e96e 923e
00000290: 43bb cebe f0c6 403d 7a1b 4dbe 2984 30be
000002a0: 970e 2fbc 1bdc a13e d296 ebbd e52a 4bbd
000002b0: 7add fbbd 7f8c 973e 33b6 1a3e 75f0 ccbc
000002c0: 0619 823e 59e2 973e ba6e b73b 1564 4cbd
000002d0: bc3b 83bc 1575 c3be 9b86 463e 4dda 9ebd
000002e0: ba2b 6d3e 2b9d f5bc 271d 793d f14c 0b3c
000002f0: ff11 213e 17b2 9b3d c2d5 a23d e2e8 77bd
00000300: 7a2b 213d f723 37bd 9aad 24be 0031 40bc
00000310: 129e 52be 93b7 a83d dc64 aa3e 5031 193e
00000320: bfc3 f63d a192 93be cd50 273d db7c b03d
00000330: d899 413d 6d82 983e fc6c 6f3e 4c26 c8be
00000340: 4b6c 793e ba60 cbbe ddda f7bd 416f 693d
00000350: 61e0 983e 684c eabd 1597 a23e daff 723e
00000360: 240f a23c c11d 2b3e dc3e 19bd 66c1 60be
00000370: 9fc6 44be 58a2 663e c31a 12be e6db b43c
00000380: c95e b83e 84d2 2abe b249 f3bc 430d 12be
00000390: 0b4e 523e a042 23be 2d03 3b3e 94c9 3fbe
000003a0: 9ef6 443d e415 98be 492c 3cbd ba96 3ebe
000003b0: 67f8 2dbe 11ef af3d 66fd 8b3d 0e55 643e
000003c0: 5ead ec3e c802 dbbd 8d38 1e3e 3c11 ebbd
000003d0: 8d6b af3e 6ba1 e6bd 359e 2ebd ac0c 64be
000003e0: 1d0e c23d 1d70 45be 91f4 f7bd 29fd a03e
000003f0: 7913 823e 9c34 6dbe 0d89 243d 99e2 623e

decoder.3.bias f4 [32]
0.24867395 -0.13483079 0.13749358 0.26244476 0.25083244 0.15680726 -0.11285239 0.013220072
0.1705009 -0.07079718 0.1356967 -0.019005412 -0.017963154 0.21488315 0.23824401 0.041406866
0.1523023 0.005711774 -0.1603455 0.2639881 0.107194364 -0.15414502 0.15422773 0.0044056904
-0.001871866 0.043287784 0.056830622 0.21773158 -0.07941917 0.29920194 0.07977176 0.26020426
00000000: 62a4 7e3e 1511 0abe 1ecb 0c3e 295f 863e
00000010: 1c6d 803e 1592 203e 271f e7bd 0099 583c
00000020: ca97 2e3e 1dfe 90bd 13f4 0a3e 3db1 9bbc
00000030: 7727 93bc 540a 5c3e 3df6 733e 3f9a 293d
00000040: 22f5 1b3e d529 bb3b 9c31 24be 7329 873e
00000050: b888 db3d 31d8 1dbe e0ed 1d3e 9c5d 903b
00000060: 6759 f5ba 884e 313d 3ac7 683d 07f5 5e3e
00000070: 85a6 a2bd ff30 993e 605f a33d 7e39 853e

decoder.5.weight f4 [7, 32]
0.09283758 0.17937051 -0.22011228 0.1533464 0.056879148 -0.05380891 0.12360943 0.2811778
-0.038534816 0.07019768 0.07135597 -0.004808197 -0.22649668 -0.23623644 -0.12726234 0.06159983
0.08849678 0.055000555 0.027756982 0.29332533 0.2115571 -0.08349165 -0.05173506 0.26303172
-0.20728286 0.18932694 0.24481276 0.07525184 0.04812198 -0.16760816 -0.14645405 -0.14060777
-0.09140624 0.0640553 -0.17121904 -0.12958069 0.24311732 -0.11419105 0.0076696137 -0.09578402
-0.2124016 0.06482898 -0.020635514 0.18150197 0.15000595 0.18485563 0.10962088 0.11831017
0.089250416 -0.21437751 -0.051265404 -0.1218322 -0.20592907 -0.038286336 -0.01956949 -0.057001214
0.07869136 0.16892785 -0.06250399 -0.15084185 0.12714799 0.23545462 0.05864416 -0.060095087
0.13470541 -0.12427477 0.29211974 0.033304133 0.15374042 0.22544213 0.15463051 -0.017433029
0.09074225 -0.21432786 0.018893078 0.070753455 -0.095988825 -0.03485333 0.28964502 0.26142955
0.068749346 -0.16396838 -0.08032946 -0.15275203 -0.28954908 -0.090933144 -0.14253677 0.058990028
-0.14581226 -0.095544234 0.09119425 -0.1760854 -0.0886021 0.019019602 0.19035435 -0.109821275
-0.048745245 0.1728152 -0.08257796 -0.34714606 -0.29355007 -0.25761738 0.0050062854 -0.15590195
-0.17302962 0.23970413 0.15882254 0.018266583 0.114258334 -0.047365017 -0.013405833 -0.12864861
0.27811754 0.20171635 -0.06613169 -0.22475795 0.19852626 -0.07119276 -0.052348945 -0.09408668
0.10472279 -0.040842675 0.11826021 -0.013032125 0.23150529 0.13771045 -0.04325872 -0.078795604
-0.09134871 -0.058109675 -0.04897997 -0.15789185 -0.21374784 0.13928472 0.34750918 -0.042907074
0.19636285 0.10451378 -0.12450319 -0.0014371375 -0.2131709 0.11390893 0.08933232 0.08020932
0.21492174 -0.011470374 -0.10646114 0.032180533 -0.1495819 0.026474265 -0.06989237 0.04089187
0.119126804 -0.035913676 -0.078788824 -0.13406725 -0.007868176 -0.18708639 -0.23176171 -0.11577156
0.2566408 -0.21838656 0.08397983 -0.1751658 0.17064717 -0.11166802 -0.18318908 -0.050745096
-0.28518066 0.017010983 -0.1418041 0.18275379 -0.059402753 -0.14808135 0.23252942 0.035596862
-0.19194786 -0.2492831 0.19456209 0.016717035 0.281143 -0.024327226 0.18200937 -0.04201891
-0.21124703 -0.026113948 0.16272531 0.16025195 0.06000207 0.16072385 0.2931768 0.0504951
-0.08808096 -0.0053227074 0.16071747 -0.2400976 -0.031736217 0.13676411 0.094650894 -0.22117269
-0.022832735 0.06971491 -0.121186234 0.19920155 -0.3321309 -0.22124642 -0.21767688 0.22410403
0.042894196 -0.2528041 0.03568768 0.09929758 -0.030944368 0.08557447 0.09742855 0.30942327
0.025625797 0.28965467 -0.1977612 -0.042682998 0.16630201 -0.15205608 0.009741601 0.22842735
00000000: a121 be3d e7ac 373e 1d65 61be d706 1d3e
00000010: 1cfa 683d bb66 5cbd f126 fd3d 89f6 8f3e
00000020: afd6 1dbd cdc3 8f3d 1423 923d 148e 9dbb
00000030: bfee 67be f7e7 71be 0f51 02be 1a50 7c3d
00000040: cd3d b53d 4348 613d 9c62 e33c bd2e 963e
00000050: 6da2 583e acfd aabd 24e8 53bd 18ac 863e
00000060: f541 54be ecde 413e 32b0 7a3e a31d 9a3d
00000070: 8e1b 453d 79a1 2bbe 0df8 15be 7cfb 0fbe
00000080: 3233 bbbd 6d2f 833d 0b54 2fbe cdb0 04be
00000090: bff3 783e ffdc e9bd 6251 fb3b 6a2a c4bd
000000a0: ce7f 59be 0ec5 843d cf0b a9bc a7db 393e
000000b0: 299b 193e cb4a 3d3e e980 e03d 9a4c f23d
000000c0: ecc8 b63d c785 5bbe acfb 51bd 2983 f9bd
000000d0: 12df 52be 22d2 1cbd 3250 a0bc 1b7a 69bd
000000e0: f028 a13d 6cfb 2c3e 1802 80bd 4976 1abe
000000f0: 1533 023e 041b 713e dc34 703d 4426 76bd
00000100: 37f0 093e c583 febd b890 953e ea69 083d
00000110: 216e 1d3e 4dda 663e 7657 1e3e b6cf 8ebc
00000120: 13d7 b93d c378 5bbe a8c5 9a3c 30e7 903d
00000130: ca95 c4bd 5ec2 0ebd 5a4c 943e 18da 853e
00000140: 75cc 8c3d 54e7 27be c683 a4bd 076b 1cbe
00000150: c73f 94be 283b babd 29f5 11be 879f 713d
00000160: cf4f 15be b2ac c3bd 0dc4 ba3d bb4f 34be
00000170: 0575 b5bd ffce 9b3c 40ec 423e fae9 e0bd
00000180: 18a9 47bd 78f6 303e a21e a9bd 21bd b1be
00000190: 324c 96be 6de6 83be c40b a43b c3a4 1fbe
000001a0: ad2e 31be 0075 753e 60a2 223e cda3 953c
000001b0: 4600 ea3d d201 42bd 24a4 5bbc 76bc 03be
000001c0: 6c65 8e3e bb8e 4e3e 0d70 87bd f326 66be
000001d0: 784a 4b3e 82cd 91bd d96b 56bd 84b0 c0bd
000001e0: e778 d63d a64a 27bd 6932 f23d b284 55bc
000001f0: b90f 6d3e f803 0d3e 0e30 31bd 975f a1bd
00000200: 0815 bbbd 6904 6ebd 399f 48bd 67ae 21be
00000210: b7e0 5abe a7a0 0e3e b9ec b13e 54bf 2fbd
00000220: 5813 493e 520b d63d 87fb febd 555e bcba
00000230: 7949 5abe 1649 e93d ddf3 b63d c944 a43d
00000240: 7214 5c3e 3cee 3bbc 4c08 dabd bccf 033d
00000250: ff2b 19be 8fe0 d83c bb23 8fbd 3c7e 273d
00000260: c1f8 f33d 381a 13bd 095c a1bd ed48 09be
00000270: 86e9 00bc 9393 3fbe f152 6dbe a419 edbd
00000280: 6c66 833e baa0 5fbe 9efd ab3d aa5e 33be
00000290: 22be 2e3e 34b2 e4bd eb95 3bbe 17da 4fbd
000002a0: 3303 92be 9e5a 8b3c 1835 11be cf23 3b3e
000002b0: 4d50 73bd a3a2 17be 311c 6e3e 04ce 113d
000002c0: fb8d 44be 1244 7fbe 493b 473e 2af2 883c
000002d0: faf1 8f3e e449 c7bc aa60 3a3e 051c 2cbd
000002e0: 2451 58be ebec d5bc 77a1 263e 1619 243e
000002f0: bbc4 753d cb94 243e 451b 963e f3d3 4e3d
00000300: ca63 b4bd 1b6a aebb 1f93 243e 25dc 75be
00000310: d6fd 01bd e40b 0c3e 54d8 c13d 187b 62be
00000320: b70b bbbc b1c6 8e3d 7d30 f8bd 7efb 4b3e
00000330: 100d aabe 6c8e 62be b0e6 5ebe 877b 653e
00000340: d3b1 2f3d 8a6f 81be 3f2d 123d 885c cb3d
00000350: 0b7f fdbc ab41 af3d 9f88 c73d ba6c 9e3e
00000360: 31ed d13c 9e4d 943e e981 4abe 5ed4 2ebd
00000370: 134b 2a3e 97b4 1bbe 3c9b 1f3c dce8 693e

decoder.5.bias f4 [7]
-0.11044503 -0.12408775 0.04808079 -0.13388972 -0.117259555 0.18017189 -0.17200851
00000000: 0131 e2bd b821 febd 5df0 443d 631a 09be
00000010: c725 f0bd fb7e 383e 0023 30be
